Other/models/xor_ann.pt (torch_old, 1233 bytes, 5 tensors)

pipe.0.weight f4 [3, 2]
000000 ee e7 b5 c0 5c d7 b8 c0 f3 ad e3 40 71 42 e0 40
       -5.6845617 -5.776289 7.114984 7.0081105
000010 a0 70 88 c0 00 26 87 c0
       -4.263748 -4.2233887

pipe.0.bias f4 [3]
000000 b7 ab 74 40 74 91 56 c0 04 93 b0 40
       3.8229806 -3.3526278 5.5179462

pipe.2.weight f4 [3, 3]
000000 2a 9f 04 c1 bf ca 60 40 19 30 30 c1 32 03 e6 c0
       -8.288858 3.5123746 -11.011743 -7.18789
000010 fa 3e 22 40 46 de 1d c1 95 ff 87 c0 be de 13 41
       2.5350938 -9.866766 -4.249949 9.24188
000020 f8 27 2b c0
       -2.6743145

pipe.2.bias f4 [3]
000000 5f 57 73 bf 03 c5 27 bf 16 c9 09 bf
       -0.9505519 -0.6553499 -0.5382246

pipe.4.weight f4 [1, 3]
000000 e0 2b 12 c1 ac f6 9c c0 18 62 09 41
       -9.135712 -4.9051113 8.586449
